crowd_nav/data/hesrl/rl_model.pth (torch, 483835 bytes, 13 tensors)

mlp1.weight f4 [128, 13]
000000 bb 05 8c bd a2 a1 98 3d 8c 21 6f be de d4 c3 3e
       -0.068370305 0.07452704 -0.23352641 0.38248342
000010 c1 89 30 3c 18 e4 31 3d 36 0c 86 be 2a be 3f bc
       0.010775031 0.043430418 -0.2618119 -0.0117030535
000020 bc c2 96 3e 5b 4b fb 3d d5 91 c0 3e a6 30 ec be
       0.29445446 0.12270232 0.3761126 -0.46130866
000030 54 f1 8e 3e 00 57 6e be 06 e0 df bd 2c 02 60 be
       0.27918494 -0.23275375 -0.10931401 -0.21875829
000040 77 58 86 3b 5e 57 75 3d c2 2e 75 bd 26 85 b0 be
       0.0040999013 0.059897773 -0.059859045 -0.34476584
000050 f5 fe fc 3e 23 ec dd be 53 2f f2 3e 02 89 3f bd
       0.49413267 -0.4334422 0.4730173 -0.04676152
000060 0f c9 b7 3d 0e 96 58 3e 68 40 50 be 1b 01 b5 3d
       0.08973896 0.21150991 -0.20337069 0.088381015
000070 bc 86 92 3d 5d a0 15 3e 05 24 85 bc f1 0d 4d 3e
       0.07154605 0.14611955 -0.016252527 0.2002485
000080 54 dd f5 be 6d 3c 33 3e fb 1d 24 3c 2d df e0 3e
       -0.48020422 0.1750352 0.0100169135 0.4392027
000090 6b ed 18 be 29 61 47 3e 8e f4 3a 3e 8c 5e 9a 3d
       -0.14934318 0.19470657 0.18257353 0.07537565
0000a0 6a c6 16 be 9e 86 db 3c b8 d9 92 3e 5e 9f 04 3e
       -0.14724126 0.026797589 0.2868173 0.12951419
0000b0 33 f3 58 3d 26 36 ea be 4c 46 15 bd 42 33 42 3e
       0.052966308 -0.45744437 -0.036443993 0.18964866
0000c0 ce 4a 31 3e ea 8a 91 3e 58 da 0f bf f1 37 c9 bd
       0.17313692 0.28426296 -0.5619254 -0.09825123
0000d0 5b 27 28 be 35 b0 06 3c d2 6e ae 3c 44 12 f9 bd
       -0.16421263 0.008220722 0.021293078 -0.12161687
0000e0 b1 c1 80 3e c1 60 3b bc c2 f2 52 3e 9f e8 2a 3a
       0.25147775 -0.011436642 0.20600417 0.00065196486
0000f0 17 22 bb be c9 83 f4 3d 32 10 a9 bd da 7e 08 bd
       -0.36549446 0.119391985 -0.08255042 -0.0333241
000100 01 a8 74 3d 84 c4 d1 bc 49 68 21 3e fd 49 76 3e
       0.059730534 -0.025606401 0.15762438 0.24051662
000110 44 86 07 be 9b 18 81 3d 43 b5 9e bc 98 ee af be
       -0.13234812 0.06303521 -0.019373542 -0.3436172
000120 68 23 db 3e 8d b3 ad be d8 d6 db 3e 25 9a 52 3e
       0.4280045 -0.3392605 0.4293735 0.20566614
000130 68 04 ba 3d a3 af 27 be 9a fa 17 be 91 a2 74 3e
       0.09082872 -0.16375594 -0.1484169 0.23890139
000140 bd 6e 89 be b9 a3 94 3e 79 0e 8f 3d 4e 94 6b be
       -0.268423 0.2903116 0.06985182 -0.23005792
000150 a3 ac 09 bd 02 d8 55 3e f0 a2 b6 be 53 85 99 be
       -0.033611905 0.20883182 -0.35671186 -0.2998453
000160 56 c7 92 3c 15 07 58 be 2b fc c9 bd c4 e3 bc bd
       0.017917316 -0.21096452 -0.0986255 -0.0922313
000170 8e 01 dc bd ea 75 da 3c 3c b3 18 3e 2a 2e c1 bd
       -0.10742484 0.026667554 0.14912122 -0.09432633
000180 e8 b0 07 be f8 eb 51 bd 99 37 a1 bc 47 31 cd be
       -0.13251078 -0.051250428 -0.019679831 -0.40076658
000190 21 3a 5d 3e 85 19 1a bc bc e0 ab bd 76 c6 df 3d
       0.21604206 -0.009405498 -0.08392474 0.10926525
0001a0 84 0f 2f bd 65 9c 82 be 6e 27 ca 3d 59 ce 1a bd
       -0.042739406 -0.25509945 0.09870802 -0.037794445
0001b0 d4 1f 52 3c 80 32 53 3d 5c d6 f6 be bd 9b 90 be
       0.012824971 0.051561832 -0.48210418 -0.2824382
0001c0 a0 13 27 bf ac 9f 9f be 82 51 65 be 7e 3a 02 3e
       -0.6526432 -0.31176507 -0.22394374 0.12717625
0001d0 b1 c2 8a bd ad 80 37 be 6b f1 8e bd d1 f7 b1 bd
       -0.06775416 -0.1792018 -0.069796406 -0.08689845
0001e0 69 03 5e 3e 24 8f 32 3d 7a 60 2c bd 10 3c d7 bd
       0.21680988 0.04359354 -0.042084195 -0.10509503
0001f0 a1 4c 3e 3e 33 dd 6a 3d 40 04 b4 3e c2 28 55 3e
       0.18583919 0.05733986 0.35159492 0.20816329
000200 9f bd 90 bd c6 7b 43 3e 8b 66 4b 3d 25 59 ac be
       -0.07067417 0.19090185 0.04965834 -0.33661762
000210 e1 73 fc bd e5 bd 00 3e 60 0d 6f 3d 1f 2c 8c bd
       -0.1232679 0.12572439 0.058362365 -0.06844353
000220 96 dd 1f be 34 6e eb 3e 3c 77 36 bf 25 5d dd 3e
       -0.15611872 0.45982516 -0.7127569 0.43235126
000230 c8 4d 7b be 0e 84 b4 bd ab 39 a1 be 75 97 b3 ba
       -0.2454139 -0.0881425 -0.3148931 -0.0013701754
000240 77 d9 8d be c8 12 74 3d d6 22 e3 be f5 78 d4 3d
       -0.27704975 0.059588224 -0.44362515 0.10374633
000250 a4 9f 2e 3e d9 42 a4 be a9 aa fb 3d 65 3f 55 be
       0.17053086 -0.3208225 0.1228841 -0.20824964
000260 ff 0a 08 3e ac c2 33 be 89 a2 4f 3d 74 b0 55 be
       0.13285445 -0.1755473 0.050692115 -0.20868093
000270 fa 44 a7 be e6 b9 d0 bd 38 7b 99 bc 3a 28 b7 3d
       -0.32669812 -0.10191707 -0.018735513 0.089432195
000280 6f 4b 39 3e 9f 56 ef bd 2a d3 22 3e 88 ec 13 3d
       0.18095182 -0.116864435 0.15900865 0.036114246
000290 73 3f bf be 88 14 87 3d 58 b5 2d be 11 30 a1 bc
       -0.37353095 0.06595713 -0.16963708 -0.01967624
0002a0 b6 48 b6 bd 89 f8 3f 3e df 3b 6f be 3b 47 31 3e
       -0.08900587 0.18747152 -0.23362683 0.17312329
0002b0 ba b7 2a 3d d0 28 83 bc 95 c1 99 bd ef ae c2 3c
       0.04167912 -0.016010672 -0.07507626 0.023765055
0002c0 64 e0 a3 be d4 5c 92 3c 09 2a 75 3e 0c f6 be 3d
       -0.32007134 0.01786653 0.23941816 0.093242735
0002d0 58 82 fd be eb 3c 9a bd d9 bd 35 bd 75 ef 50 3e
       -0.49513507 -0.075311504 -0.044370506 0.20403846
0002e0 7c 47 8b be e3 a3 8c 3e 98 59 db bc 88 6b 23 bd
       -0.27202976 0.27468786 -0.02677612 -0.03989747
0002f0 c2 33 d1 3d 38 37 49 be e0 c0 f7 3b d2 4d 4d 3e
       0.1021495 -0.1964997 0.0075608343 0.20049217
000300 d6 b2 02 be 2c 9f 04 bf 8e 7e 17 3e fb e7 f8 3b
       -0.12763533 -0.51805377 0.1479437 0.0075960136
000310 11 66 ae 3b be 5b c5 3d c2 5e d0 3e f5 bd 1e 3d
       0.005322226 0.09636639 0.40697294 0.038755376
000320 cf 62 fd bc 7b c1 e8 bb a2 42 83 bd e6 78 43 be
       -0.030930905 -0.007103143 -0.064091936 -0.19089088
000330 e4 6e 0a bd 89 da 0d 3e af 04 3c bf 75 f1 e2 3e
       -0.03379716 0.13852896 -0.73444647 0.44324842
000340 b0 4b 1b bd 06 b6 0e 3e 30 61 e5 3c 97 85 69 be
       -0.037913978 0.13936624 0.028000444 -0.22804867
000350 4e a8 aa bd 35 23 ce bc e6 f2 d4 3e 6f b4 2b 3e
       -0.08332883 -0.025163272 0.41591567 0.16768049
000360 bb 70 3d 3f 81 c6 dd be 18 0d 09 3e 20 b7 92 be
       0.7400014 -0.4331551 0.13383901 -0.28655338
000370 e6 32 9e 3d ba ef 84 bc e2 19 9e bc a2 3d 21 3e
       0.07724552 -0.016227592 -0.019299451 0.15746167
000380 64 4b d6 3e cf 77 da bc ff b3 ca bb 8f 18 08 3e
       0.41854393 -0.026668457 -0.006186008 0.13290618
000390 21 9a 3e 3c 05 93 8c be 09 43 0b bd 3f d6 3a 3e
       0.011633427 -0.27455917 -0.033999477 0.18245791
0003a0 31 85 04 bf 86 20 8a 3e 3c 4a 83 be f4 4d 89 be
       -0.51765734 0.26977938 -0.25642574 -0.26817286
0003b0 a4 32 2c 3e 4b e7 ba bd 33 9a bc bd cb 85 7c bd
       0.16816193 -0.09126147 -0.09209099 -0.061651032
0003c0 4f 01 3a bf 94 ee 6b bd 11 76 e5 be 61 1e 2f be
       -0.72658247 -0.057600573 -0.4481664 -0.17101432
0003d0 a4 d6 85 3c b7 4c 9a 3e ec 1f 9b 3d 7c 92 e1 bd
       0.0163377 0.30136654 0.07574448 -0.11014268
0003e0 1b 11 e9 3d 72 c8 b3 bc b5 5b 69 be 3d 60 01 3c
       0.11380216 -0.021946166 -0.2278889 0.00789648
0003f0 9e 7f 29 bc f8 93 6a 3e 80 e3 3f bd 84 79 cb 3e
       -0.010345368 0.22908008 -0.04684782 0.39741147

mlp1.bias f4 [128]
000000 85 a2 31 3e 14 9e f5 3d 1e f0 b3 3d b6 66 9f bd
       0.17347153 0.11993042 0.08786033 -0.077832624
000010 49 f3 96 3b 80 28 ed 3d 4c 95 46 be db 33 34 3e
       0.0046066386 0.115799904 -0.1939289 0.17597906
000020 76 a7 66 3c 44 5c cd 3d 3b ef 94 be be 0a d0 be
       0.014078012 0.10027364 -0.29088768 -0.40633196
000030 e1 65 a8 3d f0 25 80 be 22 d9 b2 3e f4 c2 f4 3e
       0.08222557 -0.25028944 0.34931284 0.47804987
000040 bf c9 94 be 48 f2 bb 3e 15 34 26 3d 4e ae e6 3d
       -0.2906017 0.36708283 0.040577013 0.11263715
000050 c8 27 c5 bd 2b 0f 86 3e dd 26 10 be 46 98 f9 be
       -0.09626728 0.26183447 -0.14077325 -0.48748988
000060 6d ac d0 be d4 db 61 3e ad f9 f7 3e e1 99 f8 bd
       -0.4075655 0.22056514 0.48432675 -0.12138725
000070 20 8f 47 be c9 df 55 be 33 4a 91 3e 05 a1 2f be
       -0.19488192 -0.20886149 0.28376922 -0.17151268
000080 22 a0 39 be c5 b3 87 be 24 74 f7 bd 16 6e 47 3e
       -0.18127492 -0.2650434 -0.12082699 0.19475588
000090 db dc 92 3e 17 7c 2d bd 21 56 d6 be 14 1b b1 be
       0.28684124 -0.04235467 -0.41862586 -0.3459097
0000a0 7e 33 a4 be d4 71 c3 bc e2 1c 8c 3e 43 a8 ac bd
       -0.32070535 -0.023857988 0.27365786 -0.08430531
0000b0 3b cc 37 3d 6f 4a ca be 4b 21 07 be 9d e6 ad 3c
       0.044872504 -0.39509913 -0.13196294 0.021228129
0000c0 58 75 b6 bc db df 20 be 0c ee d8 bc d8 5d 54 be
       -0.02227275 -0.15710394 -0.026480697 -0.20738924
0000d0 8f 3c 1d 3e 9b 11 d5 be 7a f1 93 be 85 84 24 3d
       0.15355133 -0.41614994 -0.2889517 0.040165443
0000e0 dd e1 3b be d6 b1 b8 3d 55 1e c7 be 0c ac 88 bc
       -0.18347879 0.090182945 -0.3889033 -0.0166836
0000f0 2b f1 c4 bd 46 fa 3b be 31 7f 52 bd 40 0d cd bd
       -0.09616312 -0.1835719 -0.05139083 -0.10012293
000100 c1 e9 d0 3e 73 93 7e be 68 73 8b be 44 7a 75 3e
       0.4080334 -0.24860935 -0.27236485 0.23972422
000110 1e 16 e0 bb 7e 69 8b be b4 72 c6 bd e7 1f 32 3d
       -0.006838574 -0.27228922 -0.09689847 0.043487456
000120 a3 dc 9d be dc 10 5b be b4 b4 9f 3e af 92 04 3e
       -0.30832395 -0.2139315 0.31192553 0.1294658
000130 00 33 e7 be 1a fa ed 3d 7c 9e 9f be 95 a4 a1 be
       -0.45156097 0.11619969 -0.311756 -0.3157088
000140 d8 59 8b be ef 01 bf 3d f2 60 79 be 56 f7 8f be
       -0.27216983 0.09326541 -0.24353388 -0.2811839
000150 c7 42 6f 3e 1e ff 03 bc fe 8b 87 3e fe b2 87 be
       0.23365317 -0.00805643 0.26473993 -0.26503748
000160 c2 fd c6 bd a8 38 98 be 56 6d 25 be 96 74 87 be
       -0.09716369 -0.29730725 -0.1615499 -0.26456136
000170 f1 37 3d 3d 90 c2 fb 3d de a0 be be f1 71 9a be
       0.046195928 0.12292969 -0.37232107 -0.30165055
000180 9f 6a 6d 3e 9c b7 87 3e 73 f6 5b 3e 54 c6 32 3e
       0.23185204 0.2650727 0.21480732 0.17458469
000190 b0 f4 60 be e3 6f 85 bd 2c e6 06 bf 8c 04 88 be
       -0.21968341 -0.06515481 -0.52694964 -0.2656597
0001a0 62 ee 27 be ad 03 47 3c 02 34 81 3d fb b3 ab 3d
       -0.1639953 0.0121468725 0.06308748 0.08383938
0001b0 56 06 0b 3e 20 de bd 3b bf 13 5c 3e 30 59 11 3d
       0.13576636 0.0057943016 0.21491908 0.035485446
0001c0 86 ae f3 bd bc b0 ae be eb 7c 96 be f5 be ba be
       -0.11898522 -0.34119213 -0.2939218 -0.36473814
0001d0 a5 ec 60 bd 8f 31 ab 3d f5 83 6f 3e 55 12 72 3e
       -0.05491318 0.08359062 0.23390181 0.23639806
0001e0 ae ae dd be 24 c7 07 be b4 71 a9 be cc f4 88 be
       -0.43297333 -0.1325956 -0.3309456 -0.26749265
0001f0 ef 1d 48 bb f0 58 8a bd 70 50 8c 3e 83 3b 0e 3e
       -0.003053542 -0.06755245 0.2740512 0.1388989

mlp2.weight f4 [128, 128]
000000 f7 30 15 3d 80 1d b5 3d 16 32 43 3d 71 14 bc 3b
       0.03642365 0.08843517 0.047655188 0.0057397415
000010 78 12 56 bd 15 66 40 bd 09 97 8a 3d 28 ec 25 3e
       -0.052263707 -0.046972353 0.06767089 0.16203368
000020 06 98 d4 be 88 fa 16 3c 81 ee 44 3e 16 cf 35 bd
       -0.41522235 0.009215005 0.19231607 -0.044386946
000030 0e c3 2e bd 1c 0b c7 bd 6c a8 3b bd c8 54 dd 3d
       -0.042666487 -0.09718916 -0.045814916 0.10807186
000040 a9 6c a4 3e 89 3c bf bd 0b c7 00 bf c7 db 81 3d
       0.3211415 -0.09337718 -0.50303715 0.06340747
000050 59 00 03 be 57 1e 28 3d 55 44 dd bd 81 ff a8 3d
       -0.12793101 0.04104456 -0.10804049 0.082518585
000060 59 94 22 3e e2 5d 58 3d 6c 0d 8a bd a6 b7 e7 3d
       0.15876903 0.05282391 -0.06740841 0.11314325
000070 6e d2 65 be 79 d8 72 bc 6c 98 2e 3e b3 99 4f 3d
       -0.22443554 -0.014822119 0.17050332 0.05068369
000080 02 58 be 3d c9 08 42 3e 42 93 6f bb bd 63 f1 bd
       0.0929413 0.18948664 -0.0036556278 -0.11786602
000090 b6 8e fd 3d 91 b6 5c 38 9d f7 9f 3d e2 42 ab bd
       0.123807356 5.2622116e-05 0.078109 -0.08362366
0000a0 0f ee d0 3d b5 f0 0c bd 21 a6 f8 bc d5 8f 8b 3e
       0.10201656 -0.034409244 -0.030352654 0.27258173
0000b0 f1 89 74 3e f4 ce f6 3e 9c 80 d8 3d 72 ad 10 3e
       0.23880745 0.48204768 0.10571405 0.14128664
0000c0 24 68 6d be c3 ed be 3e 42 5e 10 be 93 95 4f bd
       -0.23184258 0.37290773 -0.14098457 -0.050679754
0000d0 b9 65 e5 bd 37 64 b4 ba e3 0f b1 bc e9 b0 e9 3d
       -0.11201043 -0.0013762777 -0.02161402 0.11410696
0000e0 c8 ef db 3d dc fc 80 3e fb 61 00 3e d7 15 09 3e
       0.10739094 0.25192916 0.12537377 0.13387237
0000f0 20 cf 05 be 65 be 7c be 94 08 2e ba ed ab cd 3e
       -0.13067293 -0.24682005 -0.00066388515 0.4017023
000100 21 ff b5 3e b5 6f af bd b7 63 f5 3d 41 7c 93 bc
       0.3554621 -0.08566228 0.1198191 -0.018003585
000110 e0 b1 d9 3b 9a 1c d7 3c f3 8d 17 bd 7c 3f df 3d
       0.006643519 0.026258755 -0.037000608 0.109007806
000120 e5 51 06 3e c9 8a 3d be f3 5b 9d 3d 37 d8 cf 3b
       0.13117178 -0.18509974 0.076835535 0.0063429135
000130 99 da 54 3e 43 8a 5b 3e 3d 06 69 bc 8d a4 36 3d
       0.20786513 0.21439461 -0.014222679 0.04459052
000140 7a 42 6e 3e 5d 93 37 3e bf 6a cb bc 89 c4 65 3d
       0.23267546 0.17927308 -0.024831174 0.056095634
000150 06 19 a1 bd e9 45 9a be 20 56 7a 3e a9 10 7f 3d
       -0.07866101 -0.30131462 0.24446917 0.062271748
000160 5e 08 3d 3d f2 f5 10 3d e2 b2 2e 3d 0b 43 90 ba
       0.046150558 0.0353908 0.042651065 -0.0011006308
000170 ef c3 83 bc 5c 2d 47 be da b3 5e bd c8 26 02 be
       -0.01608464 -0.19450897 -0.05437074 -0.12710106
000180 64 de 1c 3d bd 93 60 3e 5a 1f 5e be e2 af ec 3b
       0.038298026 0.21931358 -0.21691647 0.0072231153
000190 50 ca 94 3e 83 e3 57 bd 9a 84 91 3c 80 47 28 3d
       0.29060602 -0.052707206 0.017763425 0.041083813
0001a0 19 88 80 bd bc 15 12 3e 79 fb 5e 3d 1e 08 05 be
       -0.062759586 0.14266104 0.05443904 -0.12991378
0001b0 56 7c 9c 3e 40 53 f1 3d 83 62 3b bc 0f 78 3d 3d
       0.3056361 0.11783457 -0.011437061 0.046257075
0001c0 33 7e fc bd de 27 82 3e aa 6a 2b 3e e3 dc 87 be
       -0.12328758 0.2542104 0.16739908 -0.2653571
0001d0 18 79 fa 3d 33 77 19 3e 7d 39 b9 bd 87 41 63 3e
       0.12230128 0.14986877 -0.09044168 0.22192965
0001e0 98 83 4b be c8 97 b1 3d d9 b3 2f 3e f2 82 bf 3d
       -0.19874418 0.08671528 0.1715845 0.09351148
0001f0 05 cb 24 3d 5d 1b 85 bc d1 fd 80 be ab 30 78 be
       0.040232677 -0.0162484 -0.25193647 -0.24237315
000200 e6 19 28 bd ba 7c 20 3e 11 10 34 be a2 ae 37 bd
       -0.041040324 0.1567258 -0.17584254 -0.044844277
000210 0e 97 28 3d 1b 9b 95 bd 79 4e 1b be 4e c8 07 bd
       0.041159682 -0.07304975 -0.15166654 -0.03315001
000220 62 d0 03 bd 94 c7 95 bd bd e9 ef 3d c3 a4 10 3e
       -0.03218115 -0.07313457 0.11714504 0.14125352
000230 a7 b9 d6 3c 57 0a 02 3c 1a 6f 98 3b c2 77 cb bc
       0.026211573 0.0079370355 0.004651916 -0.024837378
000240 94 e9 7e 3b f1 7a 0f be e3 47 24 3e 1a 72 b9 3c
       0.0038896548 -0.14011742 0.16043048 0.022637416
000250 a8 a2 f1 3d 32 23 42 3d 4e 19 b8 3d a5 fd 1b 3e
       0.11798602 0.047396846 0.089892015 0.15233476
000260 87 d8 b6 3c ac 1e 21 be a6 49 bb bd da b2 dd bd
       0.022320045 -0.15734357 -0.09144907 -0.10825129
000270 aa 5b 1b be a9 68 af 3d 1d ef 5c be 24 e7 ce bc
       -0.15171686 0.08564884 -0.2157559 -0.0252567
000280 76 8f 47 bc 9b e4 af bd af eb cb bc 0a 50 cc bd
       -0.0121802 -0.08588525 -0.024892656 -0.09976204
000290 3d 4a 90 3e aa 35 88 be d1 da 27 be b4 1f fc 3d
       0.2818164 -0.26603442 -0.16392066 0.123107344
0002a0 62 a6 b3 bd 93 11 cf bc 95 3d 8a bd f6 e9 ab bd
       -0.087719694 -0.025276935 -0.06750027 -0.08394234
0002b0 c5 27 5f 3d de 46 c7 bd 39 82 a9 3d 0b 6b e3 bc
       0.054481287 -0.09730314 0.08276791 -0.027761003
0002c0 13 93 35 3e f1 88 89 3e 5f 62 6f be b1 d8 f9 bc
       0.17731886 0.2686229 -0.2337737 -0.030498834
0002d0 44 de 11 bd 23 85 4c be 24 70 82 be d7 39 c2 bd
       -0.03561236 -0.19972663 -0.25476182 -0.09483688
0002e0 f0 99 b4 3e 52 70 19 3e a6 c9 e9 bd ec a8 e3 3d
       0.35273695 0.14984253 -0.114154145 0.11116204
0002f0 85 9a 41 be a0 32 0c bd 4a 97 e4 3c 43 73 8a 3e
       -0.18906601 -0.034227967 0.027904171 0.27041063
000300 7a 1f 84 be 32 90 07 3d 6f c6 c1 3c 5b a0 e8 bd
       -0.25805265 0.0330965 0.02365419 -0.113587104
000310 b7 9c be bd 60 68 b7 bd 0e 89 44 3e a1 43 dd bd
       -0.09307235 -0.08955455 0.19192907 -0.10803915
000320 48 5e 03 3d 50 ce 58 3c b3 88 54 be ba 7b 21 bd
       0.032072335 0.0132327825 -0.20755272 -0.039424635
000330 6b 4d 82 3d 66 48 93 3d 33 93 88 3c 2a ff 5c 3d
       0.063624226 0.07191543 0.016671753 0.05395428
000340 08 5e a7 be f3 65 1f be 3e 69 47 3d bf 79 7e bb
       -0.32688928 -0.15566234 0.04868435 -0.003882989
000350 0a 70 e8 bc 53 ea f0 3d b6 e8 99 be 55 33 92 3c
       -0.028373737 0.11763444 -0.30060357 0.017846743
000360 f5 ae 58 bd e2 88 34 3d 22 6e 2a 3d d4 d7 7e 3d
       -0.052901227 0.044075854 0.041608937 0.06221755
000370 72 17 0c 3e 9b 71 9b bb 10 46 04 bf 83 ee c3 bd
       0.13680819 -0.0047437674 -0.51669407 -0.09566977
000380 1a ea 28 be ce 9a 08 bc ec 81 74 3e 9a 18 7d 3d
       -0.16495553 -0.00833769 0.23877686 0.06179104
000390 ab 10 58 bd 5d ca 97 3d 7e f4 69 bd 2d 50 2f bd
       -0.05275027 0.074116446 -0.05711793 -0.04280107
0003a0 6c 0a 95 3d 7a 23 82 bd 34 17 ac 3c 04 7d 9a bc
       0.072773784 -0.06354423 0.021007158 -0.01885844
0003b0 3e 91 ea 3d 4d 5a eb 3d 8c f5 cf b9 4a 32 07 be
       0.11453484 0.11491833 -0.00039665063 -0.13202778
0003c0 ad cc f6 bc 04 cb 85 3d 51 f9 30 3d bf 5a ab be
       -0.030126894 0.06532863 0.043206517 -0.3346767
0003d0 63 42 44 3d 9e c2 45 be e1 6f 80 3d c7 ba c1 3d
       0.047914874 -0.19312522 0.06271339 0.09459453
0003e0 fe 04 98 3d 63 3e 3c bd a9 79 0c 3d 91 00 e8 3d
       0.07422827 -0.045957934 0.03429571 0.11328233
0003f0 69 b7 be 3d 12 78 9f 3c 5f 69 cb bd 5d 1f a9 3d
       0.093123265 0.019466434 -0.09932207 0.08257935

mlp2.bias f4 [128]
000000 4e 66 1c be 7a 6d ad 3d a4 55 35 bd f5 d4 3c 3d
       -0.15273401 0.084681466 -0.044271126 0.04610153
000010 a0 8b 31 3e 9e 68 b6 3b f5 26 56 3d aa 7a 0d 3e
       0.17338419 0.0055666706 0.052283246 0.13816324
000020 97 1b 42 3e 40 db 1f bd 73 9e 2e bd 42 fa cc 3d
       0.18955837 -0.039027452 -0.042631578 0.100086704
000030 5b 0f 80 3d 82 f3 a8 be e7 d9 81 bc 54 c4 9a 3c
       0.06252929 -0.32998282 -0.015850974 0.018892445
000040 21 87 ae 3d de 2d 4d 3c 18 b4 33 3d 8e a3 d9 bd
       0.085218675 0.012523143 0.043872923 -0.10626899
000050 02 40 fb 3c 8d ad a9 3d eb 96 cc 3d c9 10 9d bc
       0.03067017 0.08285055 0.09989723 -0.019173043
000060 b7 49 8c bd 30 11 3b be e2 23 21 be e0 b2 86 bd
       -0.068499975 -0.18268275 -0.15736344 -0.065770864
000070 8e 41 89 bd 05 9f cb bd 98 48 e4 3d a7 f3 12 bd
       -0.06701957 -0.0994244 0.11146659 -0.035876896
000080 6d 7e ca 3d c7 0a 11 be 87 02 a2 3d 53 87 cd bd
       0.09887395 -0.14164267 0.07910638 -0.10035577
000090 9a 1f 96 3d 9c af 68 3c 2f a9 c6 bc 86 0f 81 bd
       0.07330246 0.014202025 -0.024250595 -0.06301789
0000a0 30 e4 28 3e a0 f3 89 bd 44 a5 3f bb 2f 72 1b bd
       0.16493297 -0.06735921 -0.0029242793 -0.03795069
0000b0 a8 17 39 3d 95 91 4b be 21 d5 e5 bd 8a 48 1b 3e
       0.045188576 -0.19879754 -0.11222292 0.1516439
0000c0 da e3 52 3d c7 a3 03 3d c4 c8 a9 bd 55 63 a9 3d
       0.051486827 0.032138612 -0.08290246 0.08270899
0000d0 84 74 bc 3d b0 38 ef bc c5 f4 8b bd 09 85 76 3d
       0.09201911 -0.029201835 -0.068337955 0.060185466
0000e0 32 a3 28 3d 72 33 53 3c 16 76 32 3d 2e 10 8e bc
       0.04117126 0.0128906835 0.043569647 -0.0173417
0000f0 40 80 13 bd 6e 09 d9 3d ba a2 b9 3d 8c 0e 21 3d
       -0.03601098 0.10597502 0.09064241 0.039320514
000100 ae 99 1d 3e 60 29 11 bd d9 fc af 3c f4 29 0f 3e
       0.15390655 -0.03543985 0.021482872 0.13980848
000110 37 e3 5b 3e 3e 91 6c 3d ee c8 62 bc 39 ca de bd
       0.21473394 0.0577557 -0.013841851 -0.10878415
000120 69 8c 18 3e 66 c2 94 3d a8 61 1f be cf 21 58 be
       0.14897312 0.07263641 -0.15564597 -0.21106647
000130 78 f9 b7 3d fb cf 2d 3d 22 29 20 be 25 f0 30 3d
       0.08983129 0.042434674 -0.15640691 0.04319777
000140 f1 bd 9a bd 82 cd 01 be ee da 8e 3d 2a 64 0f bd
       -0.0755576 -0.12676051 0.06975351 -0.035007633
000150 4e 19 c8 bd 77 f3 d6 bd 67 bc 79 3d ec a5 e3 bb
       -0.097704515 -0.10495656 0.06097069 -0.0069472697
000160 a3 d0 a3 bb 55 7c be bd a2 6c 23 3d 67 45 34 3d
       -0.0049992367 -0.09301058 0.039898522 0.0440115
000170 ab 7a fe 3d de 87 50 bc e1 24 0d 3e ad fd 00 be
       0.12425741 -0.012727706 0.137836 -0.1259677
000180 47 34 35 bd 82 b1 72 be 12 44 36 bc c0 7a 70 bc
       -0.04423931 -0.23700526 -0.011124628 -0.014677703
000190 1c 44 ac 3d 69 3a 14 bd 18 8a 59 3d 42 fb 99 bc
       0.08411428 -0.036188517 0.053110212 -0.018796567
0001a0 a5 ed 0d be 07 11 d8 3d de 8f 8a bd 65 14 15 3e
       -0.13860185 0.10550123 -0.06765722 0.14558561
0001b0 80 3a 8b bd 9d ff e8 3d 96 bd af bd 01 bd eb bd
       -0.06798267 0.11376879 -0.085810825 -0.11510659
0001c0 2d 66 f5 3d 2c bf be 3d 8f ee 7d bc 0c c2 e2 3d
       0.11982379 0.09313807 -0.015498771 0.11072168
0001d0 0b 2d 8d bd 70 d6 88 bc 3d a2 52 bd 0d d6 82 3d
       -0.06893357 -0.016703814 -0.051424254 0.06388483
0001e0 82 b4 87 3d 27 d7 47 be ea 37 d0 bc 48 38 c9 3d
       0.06626226 -0.19515668 -0.025417287 0.09825188
0001f0 7b 76 bb bd 06 7d 0f be 9a 67 28 bc c1 71 35 3e
       -0.09153458 -0.14012536 -0.010278607 0.17719175

attention.weight f4 [1, 256]
000000 3d 8d e2 3e dd 81 0e 3e dd 26 19 3e bf 71 33 3e
       0.4424838 0.13916726 0.14956231 0.1752386
000010 e4 fd ff bd cc 4a 6f be ac 5f cb 3a 87 36 a2 bd
       -0.12499598 -0.23368376 0.0015516183 -0.079205565
000020 05 01 8a bc 26 58 af 3c e1 f0 be bd e1 06 0b be
       -0.01684619 0.021404337 -0.09323288 -0.13576843
000030 44 7f 67 3c 0a 7e 6d 3e 31 78 0e 3f a5 20 51 3f
       0.014129464 0.23192611 0.5565215 0.81690437
000040 1a 3b ae bd a7 f0 06 3f 76 71 53 3e d2 fc 07 be
       -0.085073665 0.52710956 0.2064875 -0.13280037
000050 19 4e e4 bd 88 3d a1 bc fc 79 81 be 4c 3a c9 3d
       -0.111477084 -0.01968266 -0.2528838 0.09825572
000060 8c 10 73 3d 15 91 0d 3f 97 85 24 3f 50 78 02 3e
       0.059341952 0.552995 0.6426634 0.12741208
000070 53 95 8f 3e f6 ee 38 bd 5d 4f bc 3e 65 08 d9 bd
       0.28043613 -0.045149766 0.367793 -0.10597304
000080 8a 8d f9 3d 7a 62 0b 3c 9a e1 07 3b 30 22 5d 3e
       0.121851996 0.008507365 0.0020733834 0.21595073
000090 1b 86 c4 3e b8 60 d7 bd 1c f7 33 3d 5c e3 8b bc
       0.38383564 -0.105164945 0.043936834 -0.017076187
0000a0 a6 44 0c 3e 34 7c dc 3e 7b 47 16 3e aa 9b 49 bd
       0.13698062 0.4306351 0.14675705 -0.04922072
0000b0 f9 86 a8 3e 5c 7d 27 3e bc a1 bb 3c 99 28 28 3e
       0.32915476 0.16356415 0.02290427 0.16421737
0000c0 de f7 22 3e 62 43 92 be ee 02 25 3e 7e 90 2e bd
       0.15914866 -0.28567034 0.16114399 -0.042618267
0000d0 a2 71 76 bd de 38 b9 3b 66 2a a0 3d 56 82 b7 3e
       -0.060166962 0.005652531 0.07820587 0.35841626
0000e0 be 80 e1 3d f1 85 07 3d 9e 2f 79 bd 47 dc 7a be
       0.11010884 0.03308672 -0.060836427 -0.24498092
0000f0 36 d5 4f be 12 ba 49 be 19 93 9e bc 0c 58 c3 be
       -0.20296177 -0.19699886 -0.019357251 -0.38153112
000100 ea 82 fd 3e 7b cb 82 bd 6b c4 3a be b5 6a d0 bd
       0.49513942 -0.06386467 -0.1823899 -0.10176603
000110 17 f8 92 3c 2a 02 0d 3d e7 ad 36 be a7 76 ad 3e
       0.017940564 0.034425892 -0.17839776 0.33879587
000120 ed a0 50 3e 2c c0 b4 be 93 2a aa 3e 59 78 2f 3e
       0.20373888 -0.35302866 0.33235607 0.17135753
000130 3f ea 09 3e 33 64 08 be 89 7b 18 3e d4 84 04 be
       0.13468264 -0.13319473 0.14890875 -0.12941295
000140 75 a5 54 3e 28 d4 0b be 40 59 fa bc 8b db d8 3c
       0.20766242 -0.1365515 -0.030560136 0.026471874
000150 4a c8 af 3e fd 66 a2 bd a9 01 3d 3f 82 16 c5 3c
       0.34332496 -0.079298 0.7383066 0.024058584
000160 48 e6 85 bb 46 82 0a be 05 03 7f be 5d a8 b4 bc
       -0.0040862896 -0.13526258 -0.24903496 -0.022052938
000170 86 78 5a 3e 89 ba e1 bd a2 f4 35 3e 10 15 cd bc
       0.21335039 -0.11021907 0.17769101 -0.025034457
000180 1a 7c d4 3e 55 09 9b 3e b6 08 c7 3e 72 82 21 3e
       0.41500932 0.30280557 0.38873833 0.15772417
000190 cb 7d dd 3d 43 41 90 3e 81 94 10 3e a2 32 25 3e
       0.10815009 0.2817479 0.1411915 0.16132596
0001a0 36 2d 68 bd 00 ad 9f 3e a1 f9 ab bd 31 d0 22 be
       -0.05668374 0.31186676 -0.08397222 -0.15899731
0001b0 f8 7a dd bd 4c 79 79 3e 6a 85 40 be e0 09 67 bd
       -0.1081447 0.24362677 -0.18800893 -0.056405902
0001c0 0b 0f e7 3e d3 3e 82 be 5c 98 3c bc 54 f8 60 3e
       0.45128664 -0.25438556 -0.011510935 0.2196973
0001d0 90 ac f1 3c d0 c9 1a 3f 2b 59 4e 3e ee 33 6c be
       0.02950123 0.6046419 0.20151202 -0.23066685
0001e0 ad ce bf bd ad 21 61 3e c2 a8 da bd 08 a0 be 3d
       -0.09365592 0.21985503 -0.10676719 0.09307867
0001f0 15 b9 5f 3c dd 1c 3b be 7e b3 03 be ac 21 3b be
       0.013654967 -0.18272729 -0.1286144 -0.18274564
000200 12 63 e4 3d 0e 2e e7 bd df d4 a6 bd 42 60 da bb
       0.11151709 -0.11288081 -0.08146071 -0.006664307
000210 15 55 9b 3c 88 68 4a 3b 86 89 07 bd 7b e8 9a 3d
       0.018961469 0.003088506 -0.033090137 0.075638734
000220 58 2c 0c 3d ac b8 15 bd 06 8e c0 3c ba c9 f2 3d
       0.034221977 -0.03655307 0.023505222 0.118548825
000230 c5 06 1f bb 53 c2 d4 3d f4 39 d5 3d 1e dc 1a 3d
       -0.002426551 0.10388627 0.10411444 0.037807576
000240 c6 d4 0d bd 52 26 88 3d 7b 83 df bd 22 b0 93 3d
       -0.034626745 0.06647934 -0.1091375 0.07211329
000250 37 75 e7 3d f6 2e 6b 3d 34 7a 46 3e 32 05 c6 bd
       0.11301654 0.057417832 0.19382554 -0.0966896
000260 b1 ae a4 3d eb 8b 12 3d af d7 64 3d e1 10 0d 3d
       0.08041132 0.035777967 0.055869754 0.034439925
000270 ec 66 47 3b 1e 20 43 3d 45 75 17 3e 2d 94 29 3d
       0.0030426336 0.04763805 0.14790829 0.041401077
000280 55 f4 0c be ad bb 84 bd 2e 80 13 3d a0 ab 00 3d
       -0.1376508 -0.06481109 0.036010914 0.031413674
000290 5c dd 32 3e 3f 47 bd 3d 94 1c 20 3e a4 bf 12 bd
       0.17467254 0.09242105 0.15635902 -0.035827294
0002a0 c2 a6 d6 3b 75 a0 de 3d 4a c0 a0 3c 36 fd a9 3d
       0.006550641 0.108704485 0.01962294 0.08300249
0002b0 d4 4c b9 3d 4f 3e 5f bd 12 3f 18 3b 3b 03 85 3e
       0.09047857 -0.05450278 0.0023230952 0.25979027
0002c0 fc 9f b1 bd 13 9c dd 3d 4f 59 00 3e 6f 9d c9 3c
       -0.08673093 0.108207844 0.12534069 0.024611203
0002d0 41 f7 9e bc 5a 97 09 3e 03 8f bd 3d 65 18 9f 3d
       -0.01940501 0.13436642 0.09255793 0.07768325
0002e0 f1 aa f3 bd d0 d0 5f 3d f8 eb ab 3d 63 ec bd 3d
       -0.11897839 0.0546425 0.08394617 0.09273603
0002f0 b7 c3 63 3e 32 37 8b 3d 00 9e 0b bb f6 c4 06 3e
       0.22242628 0.06797637 -0.0021303892 0.13161072
000300 88 47 35 bc 85 d9 22 bd 3b f4 a7 3d 65 6a 9b bd
       -0.011064418 -0.039758224 0.0820088 -0.075886525
000310 15 29 48 3d 1c af b2 3d db 6f 0b 3e 88 97 e0 bc
       0.048867304 0.08724806 0.13616888 -0.027416006
000320 20 80 c9 bd c8 c3 7b bd f1 4b 75 3c 2b 77 d0 3d
       -0.09838891 -0.06146601 0.014971719 0.101789795
000330 1c f3 3c bd 02 05 52 bd aa 71 e9 3d 8e e1 24 3a
       -0.046130285 -0.051274307 0.11398633 0.0006289714
000340 7e 7a 6e 3d 0f 7a 50 bc c3 ce cb bc 33 a3 8c bd
       0.058222286 -0.012724414 -0.024878865 -0.06867065
000350 26 13 6c bd c0 3d 10 bd 95 60 ce 3d e8 68 ce 3c
       -0.05763545 -0.03521514 0.10077015 0.025196508
000360 5c d2 15 3d 4e f7 30 3e a8 f7 bc bc a8 cc 90 3c
       0.036577567 0.17281839 -0.02306731 0.017675713
000370 cb 83 c0 3c af b0 c7 bd 13 53 be 3d 5e 96 16 3c
       0.023500344 -0.097504966 0.09293189 0.009191124
000380 6b 16 ee 3d 55 47 eb 3d f6 de 01 3e f4 14 86 bc
       0.1162537 0.11488215 0.12682709 -0.016367413
000390 c3 60 1c be 29 57 36 3d 7e 67 b5 3d e3 1a 03 be
       -0.15271287 0.044516716 0.0885763 -0.12803225
0003a0 00 49 82 b9 df b8 9c 3d 73 19 90 3d 15 78 19 3d
       -0.00024849921 0.07652449 0.07036104 0.037468035
0003b0 9e 77 b0 3d 3e 61 f0 3d d4 52 c0 3d 30 84 66 3d
       0.08616565 0.117372975 0.09390798 0.056278408
0003c0 50 f1 e9 3d 68 5e 11 3e 54 06 54 3e f8 b7 20 b6
       0.1142298 0.1419617 0.20705539 -2.3948942e-06
0003d0 11 b2 7c 3d 70 56 2d 3d 70 21 08 3e e7 74 1a bd
       0.061693255 0.04231876 0.13294005 -0.037709143
0003e0 7f c4 ce 3d ce 25 80 3b d0 bf 8c bd 62 f5 9c bd
       0.100960724 0.0039107567 -0.06872523 -0.076639906
0003f0 7f bb 05 be 0c 45 8e 3b 03 b6 f6 bc 2b 25 e8 3c
       -0.13059805 0.004341727 -0.030116087 0.028338036

linear2.weight f4 [256, 134]
000000 7d d5 c6 bb bc 51 a6 bd 78 83 53 bd 7a 86 40 3c
       -0.0060679303 -0.08121058 -0.05163905 0.011750812
000010 0e 78 7f 3c 09 ed d8 3c 57 29 55 3c 76 f7 ab 3d
       0.015592588 0.026480215 0.0130103445 0.08396809
000020 ec 4c b8 bc a8 71 c7 3c ce f0 8d 3e 7c 81 b4 3d
       -0.022497617 0.024346188 0.27722782 0.0881376
000030 89 3b 14 bd 5a 9e be 3d 18 c5 d6 3c 8f dc 6b 3e
       -0.03618959 0.09307547 0.026217028 0.23033355
000040 7b d9 50 be 60 91 88 be 94 74 54 be 80 9e ce bc
       -0.20395462 -0.26673412 -0.20747596 -0.025222063
000050 20 cc 22 3d 3c d4 71 3d 7e 5b 31 be 5b 77 a8 bb
       0.03974545 0.059040293 -0.17320058 -0.0051411814
000060 e3 9d 8a 3d 8a b6 04 3e 5c 43 c8 3d 56 a4 fc bb
       0.06768396 0.12960258 0.09778473 -0.00771002
000070 b1 e9 01 3c ff b4 ff 3d 2c 10 80 be 2b 5d af bd
       0.0079292515 0.12485694 -0.25012338 -0.08562692
000080 0c 53 89 be db ea f2 3d 4e 9b 69 be 65 f7 ff bd
       -0.26821172 0.118612014 -0.2281315 -0.12498359
000090 14 59 89 3e 7f 90 21 3e e7 05 0e bb d0 c8 14 be
       0.26825774 0.15777777 -0.0021670999 -0.14529729
0000a0 9a 04 44 3e 39 98 cc 3d ec d3 49 bd 4e 2e f1 bd
       0.1914238 0.09989972 -0.04927437 -0.1177641
0000b0 4e a2 f2 3c 85 77 74 3d 57 40 99 bd d5 97 1b 3d
       0.029618409 0.059684295 -0.07482975 0.037986595
0000c0 93 83 2d bd ac 6a 7d be 1b 98 23 3e d9 47 31 3d
       -0.042361807 -0.24747723 0.15975992 0.04328141
0000d0 98 1d 86 3d 4e 84 9b 3d 39 b5 96 bd 8b db d4 bd
       0.06548613 0.075935945 -0.07358784 -0.10393437
0000e0 57 72 16 3e af 34 88 3e 62 e7 c1 3c 03 e8 60 3e
       0.14692055 0.26602694 0.023669902 0.21963505
0000f0 df 00 11 be 9c 1d a8 3d 5a 75 a0 3d de 86 a6 bd
       -0.14160489 0.082087725 0.07834883 -0.081311926
000100 0f 6b 1a bc 50 b4 c1 3d 82 9c 80 3d 04 a0 7a 3a
       -0.009424939 0.0945822 0.062798515 0.00095605874
000110 05 28 fb 3d 80 95 d5 3c ef ea 3f be 46 e4 ad bc
       0.122634925 0.026072264 -0.18741964 -0.021227013
000120 85 93 b4 3c 37 f4 9b bc 6a a6 ae 3c db 66 d2 bd
       0.022042999 -0.01903735 0.021319587 -0.102735244
000130 b5 c2 42 bc 04 38 8e 3d cf bf 6f 3e 65 59 1d be
       -0.011887242 0.06944278 0.23413013 -0.15366133
000140 4c 1a 83 3d ee 0e 04 be 01 25 b6 3c b6 c2 9a 3e
       0.064015 -0.1289632 0.022234442 0.30226678
000150 8c 15 d1 bd e4 0f 8f bd 6c 80 63 3e 73 22 00 be
       -0.10209188 -0.06985453 0.22216958 -0.12513141
000160 72 47 af 3b e7 c8 ed 3d 5f 63 2e 3d 34 9b 04 3e
       0.005349093 0.11610585 0.042575236 0.1294983
000170 a3 64 40 bd 59 c8 2b 3e 08 5e 49 bc 64 a1 03 3e
       -0.046970975 0.16775645 -0.012290485 0.12854534
000180 08 d5 9c 3c 6c dc 86 bd 97 8f a8 3d 05 8d 92 bd
       0.01914455 -0.06585011 0.082305126 -0.071558036
000190 d1 08 05 bd 65 a0 74 be 43 26 3c 3e b9 a6 2e bd
       -0.03247911 -0.2388931 0.1837397 -0.042639468
0001a0 9e 0e 2b 3d b6 18 46 3d 45 c3 89 bb 73 ae 8e 3d
       0.041761987 0.04836341 -0.004204186 0.06966867
0001b0 b1 c0 c7 bc 5b da 08 3e 2f 5d 60 be 28 d9 84 3d
       -0.024383875 0.13364546 -0.21910547 0.06486732
0001c0 4a 2a e1 3c c2 ab f6 3d 84 ed d2 3d 97 5d 0e 3e
       0.027485985 0.12044479 0.10299209 0.13902889
0001d0 81 9c c2 bd 5f 20 50 3e 68 58 5f 3d 7b 92 f8 3c
       -0.09502507 0.20324849 0.05452767 0.030343285
0001e0 66 3c 2a 3d 78 dc 00 be 55 9d be 3c 82 79 fa bd
       0.041561507 -0.12584102 0.023268381 -0.12230207
0001f0 b4 ab 81 3c 4a 8f ae 3d 59 b8 12 3e 92 10 39 be
       0.015828945 0.08523424 0.14328136 -0.18072727
000200 b5 f7 bc bc 75 da 73 bd d3 2a 09 3d 1e 88 a8 be
       -0.023067335 -0.05953451 0.033488106 -0.3291635
000210 a9 cf e7 bd f4 86 c6 3c 59 53 94 bd 2d 71 44 be
       -0.11318905 0.024234273 -0.0724246 -0.19183798
000220 33 6e a7 bd bb 6e 86 be 0d 57 07 be bb b5 c4 be
       -0.08175316 -0.26256356 -0.13216801 -0.384199
000230 40 a3 f6 3d 88 a7 0b bd af ad 3f 3e 29 82 ed bd
       0.12042856 -0.034095317 0.18718599 -0.11597092
000240 4d c2 35 3e 0f 5b 1d be c0 8d 1d be 23 ce 79 3e
       0.17749901 -0.15366767 -0.15386105 0.24395041
000250 75 d3 8b 3e 82 82 86 bc 3e 5d 01 be 45 50 39 be
       0.27309766 -0.016419653 -0.12633225 -0.18097027
000260 59 36 8c 3e 6c cd 66 3d 72 b6 2b be 2e cd 00 be
       0.27385214 0.05634825 -0.16768816 -0.1257827
000270 27 2d 5f bc 48 2b 93 3e 25 9e 02 be a6 aa 99 3b
       -0.013621605 0.28743958 -0.1275564 0.0046895323
000280 88 f2 4f 3e 89 e7 4e 3d 40 f3 4f be 93 74 60 3e
       0.20307362 0.050513778 -0.20307636 0.2191947
000290 c2 73 83 3e bf 15 bb bd af 2c 0f 3e fe 81 a4 3e
       0.25674254 -0.09135007 0.13981889 0.32130426
0002a0 3d 33 57 bd e7 79 b2 be cf 22 ee bd 9f 03 43 3e
       -0.0525391 -0.3485863 -0.11627733 0.1904435
0002b0 c8 50 a8 be 79 9e 5f 3e ff fb 13 be a5 82 1e 3e
       -0.3287413 0.21837796 -0.14451598 0.15479524
0002c0 57 66 b7 bc 11 32 b2 3c 7b a4 0f be e1 00 af 3b
       -0.022387667 0.02175239 -0.14027588 0.005340681
0002d0 98 ba 08 bd 2d 63 70 be b9 2e 86 3e 85 cf 20 bd
       -0.033381075 -0.23475333 0.26207522 -0.039260406
0002e0 97 e0 99 bd b1 8a 2e bd 16 f1 67 3e 5d 3b 36 3d
       -0.0751354 -0.042612735 0.2265056 0.044490207
0002f0 10 b5 15 bd f4 4b 87 be 53 99 c8 3d a0 14 3a 3e
       -0.036549628 -0.26425135 0.09794869 0.1817193
000300 2d 53 8a bd eb d6 ba 3d 64 61 9b be 27 85 be bc
       -0.06754146 0.091230236 -0.3034774 -0.023256851
000310 ae 8b c9 bd 7e 02 66 3d 1a e8 b6 3d 48 71 52 bd
       -0.09841095 0.05615472 0.089309886 -0.051377565
000320 31 bd 17 be cf ca de 3e da bc 35 be 90 b0 c0 3e
       -0.14818265 0.43514106 -0.17747822 0.37634706
000330 84 4c 8e be 2a 1b a0 3e 34 c4 30 bf ec 89 65 3e
       -0.27792752 0.31270725 -0.6904938 0.22415894
000340 05 e9 ea 3d f4 ef c9 bd e6 69 eb bd 5f 7e 26 3e
       0.11470226 -0.098602206 -0.11494808 0.16259144
000350 bb 14 4d 3e 4d ed b2 bd 66 ae 66 3e dd 46 65 3e
       0.2002744 -0.08736668 0.22527465 0.22390313
000360 ed 62 ff bd 2d 63 f0 3c 89 7f 74 bd ed 4c 91 3e
       -0.124700405 0.029344166 -0.05969194 0.28379002
000370 e6 1b c3 bd a9 71 a3 3d 84 4b 6b bd f5 12 8b be
       -0.095268056 0.07980663 -0.057445064 -0.271629
000380 1f dc c7 3e 4f 45 2f be 73 d9 be bd 8f b9 81 3e
       0.39035127 -0.17116283 -0.09318819 0.25336882
000390 42 b4 a1 bd ac 7d 84 3e 9f 8e 81 3d 3d 34 f1 bd
       -0.078957096 0.2587713 0.06326031 -0.11777542
0003a0 48 10 3f bc ff 2d 41 3e cf e3 54 be e9 2c 08 3d
       -0.011661597 0.18865202 -0.20790027 0.033245955
0003b0 75 03 b6 3d 2e e1 8c 3c a4 a2 84 be 20 b6 5f bc
       0.08887378 0.017197218 -0.25905335 -0.013654262
0003c0 6f ee b5 3e f1 17 8b 3d 41 45 53 be 6c 1d 21 3e
       0.35533473 0.06791676 -0.20631887 0.1573388
0003d0 05 4d f6 3d 56 c0 ea 3e d4 e8 7d bc 5a ce a2 bc
       0.12026409 0.45849866 -0.015497405 -0.019873787
0003e0 97 d5 b2 bb ba 2c 3d 3e 0e 86 1a be 63 a0 41 bd
       -0.005457591 0.18474093 -0.150902 -0.047272097
0003f0 31 31 1b 3e 6c 3e 81 3d 1e 5d 10 be 3e 28 1d bd
       0.15155484 0.06310734 -0.14098021 -0.038368456

linear2.bias f4 [256]
000000 da da 95 bd f4 6a 96 be 79 54 44 be c8 e4 da bd
       -0.07317133 -0.29378474 -0.19172849 -0.10688168
000010 9c e7 10 3d a1 2f 9c be 81 e9 44 be ea 6f 38 be
       0.03537713 -0.30505088 -0.192297 -0.18011442
000020 ad 3c 53 be a2 57 56 be 1e 16 35 bd 5f 3d 88 bd
       -0.20628615 -0.20931867 -0.044210546 -0.066523306
000030 45 86 e0 bc 9c ba 62 bd f7 f6 da 3c 2a 95 aa bc
       -0.027407775 -0.055353746 0.02672909 -0.02082308
000040 25 9c 77 be 22 92 ca bd e3 a4 bc bd 1c 57 47 3b
       -0.24180658 -0.09891154 -0.09211137 0.0030416911
000050 60 c9 1a be c7 bc a7 3d d3 18 bd bc d2 7f 13 bd
       -0.15115881 0.08190303 -0.023083126 -0.03601057
000060 80 10 86 be ea 18 39 be dc cc 1b be 6d a6 b4 bd
       -0.26184464 -0.1807591 -0.15214866 -0.08820806
000070 73 d2 06 3d 96 07 6d be f8 c4 0f be 14 1a f9 bd
       0.032915544 -0.23147425 -0.14039981 -0.12163177
000080 98 dd 9f bb 11 9a 8a bb b6 63 51 3d 93 79 33 bd
       -0.004878711 -0.004229792 0.051120482 -0.043817114
000090 28 90 3f be 3c 77 2d bd e8 0f 4c be 6f a2 0e be
       -0.18707335 -0.04235004 -0.19927943 -0.13929151
0000a0 05 ed f9 bd ce f1 b5 be ef c8 a4 bd 93 5a 96 bd
       -0.12203411 -0.35536045 -0.080461375 -0.073414944
0000b0 21 48 78 3d ca 82 03 be 49 38 1f be 9b fd 8f be
       0.060615662 -0.12842861 -0.15548815 -0.28123173
0000c0 c3 c3 29 be 63 19 04 3d 35 5d 6f be db 15 83 bd
       -0.16578583 0.032250773 -0.233754 -0.06400653
0000d0 39 17 58 be 94 4e 55 bd a9 ac 81 be 70 cb 16 be
       -0.21102609 -0.05207689 -0.25327042 -0.14726043
0000e0 16 87 85 be 4a 1a f1 bb 8f f4 ae 3d 05 39 e2 bc
       -0.26079625 -0.00735787 0.085427396 -0.02761508
0000f0 d7 81 ee bd 1b 39 6f bc 7d b0 6e be 1f 2c 02 3e
       -0.11645859 -0.014601017 -0.23309512 0.12712143
000100 90 cd ea bc 24 ad 5f be c9 83 64 be b3 7d 8e be
       -0.028662473 -0.21843392 -0.22315897 -0.27830276
000110 a4 c2 f9 bd 80 88 58 3c 10 ff 0d be 82 10 31 bd
       -0.12195328 0.013216138 -0.1386683 -0.043228634
000120 75 2f 03 be b3 05 e4 bd 23 e0 1b be 2a d7 96 3c
       -0.12811072 -0.111338995 -0.1522222 0.018413145
000130 11 6d ea 3d d8 23 0f 3e 8e c3 f9 bd 8e 81 f2 bd
       0.11446584 0.13978517 -0.12195502 -0.11841117
000140 b3 d2 34 3d e7 de e0 bd d6 b3 0b 3d 15 ad 12 bd
       0.04414625 -0.10980015 0.03410705 -0.035809595
000150 3b e2 e2 bd 23 32 a8 3d 3b 70 ae bd 9c f2 c3 3d
       -0.11078306 0.08212688 -0.085175 0.095677584
000160 61 39 c7 bd 3c 82 73 be 0a dc 11 be 5d c0 0c be
       -0.09727741 -0.23780149 -0.14244094 -0.13745256
000170 6f da 0e be 48 ee f4 bd ac 47 0b be 73 cb 47 3b
       -0.13950513 -0.11959511 -0.1360156 0.0030486255
000180 bb 58 0d be d1 f3 3b 3e c0 45 f6 bb 02 49 0a bc
       -0.13803379 0.18354727 -0.007515639 -0.008440258
000190 b5 d4 ea bb 43 3d 4d be f5 ff f3 bb a0 7c 1c be
       -0.00716647 -0.200429 -0.007446284 -0.15281916
0001a0 ef 1a 89 bd 43 eb b4 3c 7d c8 1f 3e de b0 47 be
       -0.0669459 0.022084838 0.15603824 -0.19501063
0001b0 bd 39 87 be 41 57 50 be fc 5b 71 3d 37 3a ee bd
       -0.26411238 -0.20345785 0.058925614 -0.11632197
0001c0 83 fb 5c 3e c9 24 2c be 47 28 c7 bd 92 88 f7 3b
       0.21580319 -0.16810907 -0.09724479 0.0075541222
0001d0 54 53 23 be e1 14 27 bd 24 ae 2f bc f3 5d 95 bd
       -0.15949756 -0.040791396 -0.010722671 -0.0729331
0001e0 3e 6e b5 bd 8a d9 90 bd 45 6d 93 be 8d 3d bd bd
       -0.08858918 -0.07072742 -0.28794304 -0.092402555
0001f0 2b 9e ba bd 17 4b fa bd 04 75 c7 3d 32 98 43 be
       -0.091121994 -0.122213535 0.09739116 -0.19101027
000200 d7 83 00 3e 50 5d 06 be e8 31 4d 3b b3 d3 15 be
       0.12550293 -0.13121533 0.0031310264 -0.14631538
000210 ff 13 f8 bc df 66 cb bc 4a 0e a1 bc 2e bd 27 be
       -0.030282972 -0.024829326 -0.019660134 -0.1638076
000220 29 dd f1 bd 57 67 e5 3b d0 9c a6 bd a2 9a 44 3d
       -0.11809761 0.0070008445 -0.08135378 0.04799903
000230 66 ad 5f be 1f 1f 67 be 6f ad ec bd c5 86 99 be
       -0.2184349 -0.22570466 -0.11556517 -0.29985633
000240 fe 3f 1a bd 4d b1 5c be 92 f4 d4 bc c2 e3 50 be
       -0.037658684 -0.2155201 -0.025995526 -0.20399383
000250 33 c3 63 be 25 49 af be 47 25 96 3d fc d2 04 3d
       -0.22242431 -0.34235492 0.07331329 0.032427773
000260 d3 64 ba bd 29 68 19 be af a3 16 be 22 ba 73 3e
       -0.09101262 -0.1498114 -0.14710878 0.23801473
000270 41 65 9f bd cc 40 36 3d 9b 86 09 be 02 78 47 be
       -0.077829845 0.04449539 -0.13430254 -0.19479373
000280 f2 1c b9 be 77 c2 d0 bd e9 02 c4 bd 80 d7 cb bd
       -0.36154896 -0.10193341 -0.095708676 -0.09953213
000290 fb ad 6b bd 52 41 47 bd 50 d0 d7 bd 4e ab 26 be
       -0.057538968 -0.04864628 -0.10537779 -0.16276285
0002a0 79 2f 14 bd 3b ea eb bd b3 77 c7 bc 4a 2d 31 be
       -0.036178086 -0.11519285 -0.02434907 -0.17302433
0002b0 6d ab 89 be e6 e5 46 3e 38 20 bd bd 22 62 d4 be
       -0.268886 0.19423637 -0.09234661 -0.4148112
0002c0 57 18 9a bd 55 e2 80 be a8 b5 67 3e 56 53 47 be
       -0.07524174 -0.25172678 0.2262789 -0.19465384
0002d0 b7 91 35 be 4e c8 ac bd 0f 9d 84 be 45 69 c1 3b
       -0.17731367 -0.084366426 -0.25901076 0.0059024417
0002e0 bf 4c 87 bd e0 a5 d9 bd f0 1b 87 be 23 5e 42 be
       -0.06606435 -0.10627341 -0.26388502 -0.18981223
0002f0 a5 aa 39 3e ed 5e 1b be a8 91 a0 bd c7 b8 6b be
       0.18131502 -0.1517293 -0.07840282 -0.23019706
000300 db 1a 04 3c a9 3e 3b 3c 1c cb d2 bd fb 06 cd bb
       0.0080630435 0.011428514 -0.10292646 -0.0062569357
000310 82 20 86 bc 4b 31 95 bd ea 05 2b be 07 b9 48 3e
       -0.016372923 -0.072847925 -0.16701475 0.19601832
000320 84 b9 11 3b 7f 9f bb bd 2e 06 05 be 12 64 52 bd
       0.002223582 -0.09161281 -0.12990639 -0.051364966
000330 0a 83 1e be dd a7 fa bd eb 86 88 be ea d9 25 be
       -0.15479675 -0.12239049 -0.26665434 -0.16196409
000340 b8 fe e9 bd cd 9c 07 be 2c 0f 79 be 33 73 48 be
       -0.11425537 -0.13243409 -0.24322194 -0.19575195
000350 d4 13 10 be 45 da 63 bc 6c 4b e6 3a 7d a8 30 be
       -0.14070064 -0.01390702 0.0017570085 -0.17251773
000360 55 67 b5 bc 6f 0d d5 bc 87 33 b3 3d ff d2 bd bd
       -0.022144 -0.026007382 0.087500624 -0.0926876
000370 8d 0e 24 be 64 79 25 be d0 f5 79 bd 91 2d 9b 3e
       -0.16021176 -0.16159588 -0.06102544 0.30308202
000380 1f 01 29 bc 99 56 96 3c 8f 2c 0a be d0 a1 fe bd
       -0.010315209 0.01835184 -0.1349356 -0.12433207
000390 35 9a 8a be a7 0c 41 3d 72 dc f2 bd ae 0d 2a be
       -0.27070776 0.047131207 -0.11858453 -0.16606781
0003a0 66 1d b0 bd 8a fd 3b be c2 ad f6 bd b8 b9 1e be
       -0.08599357 -0.18358436 -0.120448604 -0.15500534
0003b0 53 7b 73 3d e0 88 99 bd 53 f7 c4 3c b3 9c 95 be
       0.059443783 -0.0749681 0.024043715 -0.29221115
0003c0 92 e3 15 be a8 d4 0d 3e 07 75 a4 bd a3 81 20 be
       -0.14637592 0.13850653 -0.08030134 -0.15674452
0003d0 93 fc 24 bd ba 67 a3 be f0 e2 00 be b6 10 7d 3e
       -0.040279936 -0.31915075 -0.1258657 0.24713406
0003e0 cd c3 3e be e8 be f0 bc fe 67 26 be c6 6c 03 bd
       -0.1862938 -0.029387906 -0.16250607 -0.032086156
0003f0 e2 1a 81 bc 84 86 67 be f6 3b 86 bd a8 c3 35 be
       -0.015759889 -0.22609907 -0.065544054 -0.17750418

linear3.weight f4 [256, 256]
000000 e0 f1 8a bc ae 5c bf be 57 93 81 3a 8a 56 5e be
       -0.016961038 -0.37375396 0.000988583 -0.217127
000010 78 74 ea bd a9 17 a4 be 41 15 b9 bd 9c 56 0d be
       -0.11447996 -0.320493 -0.09037257 -0.1380257
000020 88 cb c0 bd 3d 37 0e bd 7c 85 80 3d 1b da 65 bd
       -0.094138205 -0.034720648 0.0627546 -0.056116205
000030 93 11 9f bd ad 48 df 3d 0d d4 3b bc 84 bf f6 bc
       -0.07767024 0.10902534 -0.011464131 -0.030120619
000040 0d 42 c9 be f4 9a 60 be 48 bb 22 bd 06 dd 2d bd
       -0.39308205 -0.2193411 -0.039729387 -0.042447113
000050 93 71 00 3e a5 64 d3 bc bd 35 f4 3c 93 f4 16 be
       0.12543325 -0.025804827 0.02981078 -0.14741735
000060 12 39 b8 bd 67 f3 0d 3d e4 33 9a 3c 5e 2c c2 bc
       -0.0899526 0.034655955 0.018823572 -0.023702797
000070 9b 10 1c ba 83 79 8a 3d c1 10 5a bd 45 e4 8c bd
       -0.0005953402 0.06761458 -0.053238634 -0.068794765
000080 dc bc 9e bd 80 b3 0c bd d6 1f 7c bd 3b c1 e7 3d
       -0.07750866 -0.034350872 -0.0615538 0.11316153
000090 32 b1 7e 3c e3 55 aa bd 06 77 36 be aa 5e b3 3d
       0.015545176 -0.08317163 -0.17818841 0.0875829
0000a0 fc 16 43 3d f3 3f de be 06 84 b8 bc 5f b5 3a 3c
       0.04762934 -0.43408164 -0.022523891 0.011395781
0000b0 83 46 5a bd fc ad 93 3d be 5f 93 3d f1 65 0f be
       -0.0532899 0.07210919 0.07195996 -0.14003731
0000c0 da d7 99 bc e6 4a 88 bd 27 b2 99 bd 73 3f 7d be
       -0.018779684 -0.06654911 -0.07504683 -0.24731235
0000d0 6d 09 2f be 66 c9 5d ba 1a 7e f7 bc 7b 74 93 bd
       -0.1709344 -0.00084604917 -0.030211497 -0.07199951
0000e0 13 83 cb 3d 38 34 ae bd 9b 1a 2b bd e6 4f 76 bd
       0.0993711 -0.08506054 -0.04177342 -0.06013479
0000f0 7a ea a7 be 02 73 5d 3b 16 d5 b0 3d 91 39 43 be
       -0.3279608 0.0033790474 0.08634393 -0.19064929
000100 a8 15 85 bd 91 f0 bd bd 5c 7a dd 3d d1 08 b3 3c
       -0.06498271 -0.092744 0.10814354 0.02185479
000110 8d 7d 30 bd 46 03 ef bc ce 23 33 be 27 93 f4 3d
       -0.043088485 -0.029176366 -0.17494127 0.119421296
000120 b8 45 97 bb 3b 7b b1 bc d3 b4 f3 bc 3f 9b 4b bd
       -0.0046164654 -0.021665206 -0.02974931 -0.0497086
000130 99 ea 40 be 1d 95 c0 bc 27 7e 6c 3e 22 7c 88 be
       -0.18839492 -0.023508603 0.23094998 -0.26657206
000140 a7 4b d5 3d 34 d9 0e bd c5 af 9e bb af eb 82 bd
       0.1041482 -0.03487511 -0.0048427307 -0.06392609
000150 f3 ea 37 3d ce 33 c7 3b 0f 95 8d 3d f9 cd 00 be
       0.0449018 0.0060791736 0.06913196 -0.12578572
000160 a0 b7 ab bd 89 38 7b be cb 27 16 be 7e d9 69 bd
       -0.08384633 -0.24533285 -0.14663617 -0.057092182
000170 2f 4b 00 3e 98 40 48 bd 03 3b b2 bd ab bf 6d 3d
       0.1252868 -0.048889726 -0.08702662 0.058044117
000180 81 36 5e be 60 bc 6e be 27 5f a9 bd 5f 3a b7 bd
       -0.21700479 -0.23314047 -0.08270102 -0.0894668
000190 34 3f b6 3c 8f 52 6c bd 02 50 96 be 5f af d6 be
       0.022246934 -0.05769592 -0.29357916 -0.41930673
0001a0 32 a9 bd 3c 59 25 a4 bd 38 90 fc bd b9 9c 9b 3d
       0.023151968 -0.08014936 -0.12332195 0.07598252
0001b0 ab 90 05 3e 5f b5 1e be d5 d8 40 bd 0a c7 9d be
       0.13043468 -0.15498875 -0.047081787 -0.30815917
0001c0 68 50 7d bd 4a 18 1b be 54 58 06 be 6e 58 0e bb
       -0.06184426 -0.15145984 -0.13119632 -0.0021720189
0001d0 6e 93 85 3d 97 6e 31 be 7b 62 44 be 6e 68 10 bd
       0.065222606 -0.17327343 -0.19178192 -0.035255842
0001e0 ba 92 b2 bd e4 5a cf bc 51 b3 40 be f0 52 0b be
       -0.08719392 -0.025311895 -0.18818404 -0.13605857
0001f0 af dc ac 3d 69 cc 16 bd e9 32 bb bd a4 70 36 bc
       0.084405296 -0.036816034 -0.0914057 -0.011135254
000200 45 58 72 3c 5f 56 a4 3b 53 e9 4b 3d 69 97 a9 3d
       0.014791553 0.005015179 0.049783062 0.08280832
000210 6d 94 2e 3d ec cd 19 3e d4 ba cd 3c a5 c7 53 be
       0.04262202 0.15019959 0.0251135 -0.20681627
000220 cb b1 b8 3d 19 6d 7a bc 37 2b 4d 3b e8 d2 24 3d
       0.09018286 -0.0152848 0.0031306276 0.0402402
000230 2a 0f 8e be 32 dd 20 3e f1 f3 aa be 61 ff f0 bc
       -0.27745944 0.1570938 -0.33389238 -0.02941865
000240 b3 41 ba bd 8b dc 2d bd cd 9a 4d bf f6 bc 31 3e
       -0.090945624 -0.042446654 -0.8031433 0.17357239
000250 21 db 7a be 53 92 85 be e4 14 d3 bd 25 ab 15 bd
       -0.24497654 -0.260882 -0.10306719 -0.03654017
000260 f0 a9 e0 be 10 83 42 3c 99 57 62 be 70 0b e4 3b
       -0.43879652 0.011872068 -0.22103728 0.0069593713
000270 dc 4a 4c 3c 9c 09 35 3c c9 2c b5 bd 99 73 31 be
       0.01246902 0.011049654 -0.08846433 -0.17329253
000280 2a 5f 36 3d 4f bc df 3d a1 0f d2 3c 4a d5 62 bd
       0.04452435 0.10924589 0.025642218 -0.05537919
000290 1e 76 57 bd ea a6 cc bd cb 90 f8 3c 26 9b 0c be
       -0.05260288 -0.09992774 0.03034248 -0.1373106
0002a0 87 2b c9 bd 62 2c 8b bd 97 1d 13 be 0c 0f 24 bd
       -0.09822755 -0.06795575 -0.14366756 -0.040053412
0002b0 51 f9 0f be 7d 1d 49 be ee 52 3e bd f2 4d 08 be
       -0.1405995 -0.19640155 -0.046465807 -0.13310984
0002c0 5e 16 4c 3d eb a5 a4 bd 0b 3e f3 bd 20 24 c6 3d
       0.04982602 -0.08039459 -0.11877068 0.09674859
0002d0 cd 07 82 3d 60 02 2f 3d df ab 33 3e 89 90 08 be
       0.06349144 0.042726874 0.17546032 -0.13336386
0002e0 0a 76 ba bc 0e 90 87 be 73 3a 30 be ab be 4f 3d
       -0.022761364 -0.26477093 -0.17209797 0.050718945
0002f0 c7 4e 43 3d 1c 06 f8 bd 99 46 93 3b 4b f7 1d be
       0.04768255 -0.1211054 0.0044945 -0.15426366
000300 34 35 ac 3d f6 f7 2b bc bd 1c 3a be 3e eb f0 ba
       0.08408585 -0.01049613 -0.18175025 -0.0018380655
000310 ad a2 d2 bd a0 df 90 bd 35 71 b3 3d 5d 92 b5 bc
       -0.10284934 -0.07073903 0.08761827 -0.022164518
000320 0b ff a1 3c 47 7d 06 3c 82 a7 08 bc 1b 1e 00 be
       0.019774934 0.008208579 -0.008340718 -0.12511484
000330 7b 93 be 3d 65 48 2c be 86 84 49 bd 70 78 61 bd
       0.093054734 -0.16824491 -0.04919865 -0.0550465
000340 5a b4 21 be 7d f9 35 3d 91 63 27 be 9f 12 b8 bc
       -0.15791455 0.044427384 -0.16346575 -0.022469817
000350 99 9a a9 3c e0 f0 13 3d db 56 47 bd 42 03 b5 3c
       0.0207036 0.03611839 -0.048666816 0.02209628
000360 f3 9e c1 3d 7e 72 26 3e 7b 11 d3 bd 15 2e 3e bd
       0.09454145 0.16254613 -0.103060685 -0.046430666
000370 f5 d7 eb be c6 b1 db 3d 34 3a fe bc 62 d3 3e be
       -0.460632 0.10727267 -0.031033613 -0.18635324
000380 0f 64 73 be b8 68 34 3d 96 d6 48 be 65 9a 9d bd
       -0.23768638 0.04404518 -0.19613108 -0.07695464
000390 38 c9 64 bd bf 95 57 3d 29 b2 05 3d 50 d6 51 bf
       -0.05585596 0.052633043 0.03264061 -0.8196764
0003a0 12 a2 a3 3d 10 38 c8 bd e4 dc 9e bc 2b 7e 8d be
       0.07989897 -0.09776318 -0.019392438 -0.2763532
0003b0 28 5b 39 be 28 0e a2 bd 60 ea 47 be 79 b3 c4 3d
       -0.1810118 -0.07912856 -0.19523 0.09604544
0003c0 c2 62 80 bc 6b cb 98 bd 9e 9b e7 bc e9 ca ab bd
       -0.015672091 -0.07460674 -0.028272446 -0.083883114
0003d0 16 56 96 3c ca a2 30 bd 35 c3 41 be f2 db b0 3c
       0.018351596 -0.043123998 -0.18922122 0.021589253
0003e0 29 6c 44 be a8 2b fd bd 4c 23 0d bd ed 56 65 bd
       -0.19181885 -0.123618424 -0.03445749 -0.055991102
0003f0 7e b5 8f bd bd 83 84 be 4e 51 b3 bd e7 9e eb bc
       -0.07017039 -0.25881758 -0.08755742 -0.028762294
